data.pth (torch, 8471 bytes, 6 tensors)

l1.weight f4 [8, 117]
000000 e7 e2 ef be 3c 4f 25 3f 44 75 00 bf 60 75 01 bf
       -0.468528 0.6457403 -0.50178933 -0.50569725
000010 54 4f 48 3f 4e a4 9c 3c 41 fa af be 43 e9 0c 3f
       0.78246045 0.019121315 -0.34370616 0.5504343
000020 9b 26 35 3e 4f 0d 8a 3c bb 5c c4 be 02 65 d0 3d
       0.17690508 0.01685205 -0.38351998 0.10175516
000030 31 47 9e bd cb 5e 6e 3e 16 5c 06 bf e4 19 bb be
       -0.077284224 0.23278348 -0.5248426 -0.3654319
000040 31 73 a2 bd 9a 6a 27 3d 4a 25 46 3f 4f aa 8c be
       -0.07932127 0.040873148 0.7740065 -0.27473685
000050 c6 fc 23 bf 79 8b 8a 3e 24 3d 36 3f 86 0e 0c bc
       -0.64057577 0.27059534 0.71187043 -0.0085483845
000060 f1 27 c8 3e e4 59 57 3f fd a1 a5 bf e4 85 86 be
       0.39092973 0.8412154 -1.294006 -0.26274025
000070 a5 e1 4f be 7e 3d 12 3f 0e 53 f6 be 7b 04 97 3e
       -0.2030092 0.5712508 -0.4811024 0.29495606
000080 71 4e 26 3e 92 4d 57 be 4e c0 a3 3f 3d a6 4c be
       0.1624086 -0.21025684 1.2793062 -0.1998529
000090 01 93 37 3e cc 30 46 be 67 c2 73 3d 94 31 fc 3e
       0.17927171 -0.19354552 0.05951157 0.49256575
0000a0 c7 34 0f 3f 9e ec 87 bb ee b0 f1 3d 76 4a da 3e
       0.55939907 -0.00414808 0.11801325 0.42634934
0000b0 27 62 d2 3e bb 0e d6 3e cb 0d 9d 3e 6c f8 0b 3f
       0.4109051 0.41808113 0.30674586 0.54675937
0000c0 58 5c 28 bf 81 61 26 3f 5e 60 f3 3b 1b 9f bc 3e
       -0.65765905 0.6499253 0.0074272593 0.36840138
0000d0 a7 f5 d4 be db 38 e2 3e 19 4f f1 3e eb cd 24 bf
       -0.41593668 0.44184002 0.4713066 -0.64376706
0000e0 3a 4a d4 3e ed aa 0c 3e 54 96 24 3e f3 56 50 3f
       0.4146288 0.13737078 0.1607297 0.81382674
0000f0 12 a2 4a 3f 61 e5 96 be d7 14 8b 3e ed dc 79 be
       0.7915355 -0.29471877 0.27164337 -0.24400683
000100 8d a2 5e 3f 52 18 af 3c 83 32 b5 be 89 b2 56 be
       0.8696678 0.021373902 -0.353901 -0.20966543
000110 7e 08 ef 3d 73 e0 d1 be 78 fa 39 3d f6 12 f9 be
       0.11671542 -0.40991554 0.04540488 -0.4864728
000120 a8 8f be 3d cd 8a 8d bd 04 1e db 3e 99 35 2a 3f
       0.09304744 -0.0691124 0.42796338 0.66488034
000130 83 db 27 3f 70 7d 29 bf 54 b5 c9 3c e9 4e c3 be
       0.65569323 -0.6620703 0.024622597 -0.3814614
000140 dd 0e c4 be c2 73 fb 3e 2b a7 c7 3f 70 db 19 3f
       -0.3829259 0.49111754 1.5597891 0.6010046
000150 4e 69 05 3f ba 77 11 3f 7a 6d 11 3e dd 6b 92 be
       0.5211381 0.56823313 0.14201918 -0.28597918
000160 8f 75 62 bf b6 bf 6d 3f 10 00 55 3c fc 65 10 3f
       -0.8846063 0.9287065 0.013000503 0.56405616
000170 4f f4 05 bf ea 54 b4 be 0c 2d 3d bd 48 55 d3 3e
       -0.5232591 -0.35221034 -0.04618554 0.41276002
000180 9b 91 3e 3e 1c 90 c1 be 3c 80 3d 3e b7 50 57 bf
       0.18610232 -0.3780526 0.18505949 -0.84107536
000190 23 b7 c5 be 2f d1 d1 3e e1 04 02 bf c0 72 bc 3e
       -0.38616285 0.40979907 -0.50788695 0.36806297
0001a0 b5 ba 1b 3f 5e 52 e3 3e a6 d3 0c 3f fa 0b 34 3e
       0.6083177 0.4439878 0.5501045 0.17582694
0001b0 11 83 08 bf cf 9c 7c 3d c5 6c 07 3f 42 69 9a be
       -0.5332499 0.06167298 0.52900344 -0.3015843
0001c0 3d 64 24 3f 7d a4 07 be ed 61 38 3f cb 13 2c be
       0.6421545 -0.13246341 0.7202442 -0.16804425
0001d0 be ca bf 3d 28 30 35 3f a9 21 06 be 48 19 52 3f
       0.09364842 0.70776606 -0.13098778 0.82069826
0001e0 de fb 8f be 50 ea 6a bf f9 e7 f3 3d 68 00 25 3e
       -0.28121847 -0.9176378 0.1190948 0.16113436
0001f0 bf 29 4f bf 5e 7d 0a bf 5d bc 4a 3f 6f 9e 47 3d
       -0.80923074 -0.54097545 0.7919367 0.04873508
000200 0d a6 4e 3e 3f f3 45 3e c9 7b b0 3e c2 8f a7 3f
       0.20180531 0.19331072 0.3446944 1.3090746
000210 d7 59 07 be cc 86 f0 3d 6d 59 32 3e f2 70 0d bf
       -0.13217865 0.117444605 0.17416926 -0.55250466
000220 40 12 95 be a4 82 80 be 42 0e 0e 3e 80 65 bd 3e
       -0.29115486 -0.2509967 0.13872626 0.369915
000230 f4 ab ec 3e 9a ae a9 3e b2 fe cb 3e 70 e6 86 3f
       0.4622494 0.33141023 0.39842755 1.0539074
000240 e2 1f a5 be a4 6f 6e 3f bb d5 fa be 7c a7 44 3f
       -0.32250887 0.931391 -0.48991188 0.7681806
000250 dc 55 f6 3e ee 42 58 3e b8 cf 01 bf 97 00 82 bf
       0.4811238 0.21119282 -0.5070758 -1.015643
000260 01 27 35 3f 6c 63 94 3e c8 e3 8b 3f 06 7a 4d 3f
       0.7076264 0.28982103 1.0928888 0.8026432
000270 e5 4d 84 be 23 84 36 bf 39 df 85 3e 01 eb 8a 3e
       -0.2584068 -0.71295375 0.26146868 0.2713242
000280 7f 69 cc be b4 47 9a 3e 4c f0 b1 3e 3e 6f 6c 3e
       -0.39924237 0.3013283 0.34753644 0.2308931
000290 18 94 06 bf a5 f8 92 3f a8 4a 32 bf d4 ff 2e be
       -0.52569723 1.148213 -0.69645166 -0.17089778
0002a0 37 fb 81 bf 3a 2f 0f 3f d6 03 82 bf da f7 81 bf
       -1.015479 0.55931437 -1.0157421 -1.0153763
0002b0 3d 41 98 3f 98 77 c3 be 5c 1c 72 bd 83 fa e4 3e
       1.1894909 -0.3817718 -0.059109077 0.44722375
0002c0 5d 19 b0 3f 6f 9f 87 bd 13 5b 9c be 4f c5 1c bf
       1.375774 -0.066222064 -0.30538234 -0.6123857
0002d0 2c 5b 9e be a1 05 75 be f3 49 c3 3f 1b 6a 58 3f
       -0.30928934 -0.23927929 1.5256943 0.84536904
0002e0 0e 76 16 3f 55 50 50 3f 53 e8 04 be da 54 a9 3c
       0.5877389 0.81372577 -0.1297925 0.020670343
0002f0 78 fb 03 3f 1a 5e 97 be 35 47 71 3e 09 bb 96 3d
       0.51555586 -0.2956398 0.2356232 0.07359893
000300 b5 18 39 bf 33 ea 2b bf 2a fd 16 be 0f 26 13 3e
       -0.72303325 -0.67154235 -0.14745012 0.14369987
000310 2f e0 ea bd 95 08 0a be 31 14 76 be 0f 09 52 3f
       -0.11468541 -0.13479836 -0.2403114 0.8204507
000320 1e f4 5b 3e fd 4b c6 be 5d 39 c4 be 86 a4 a0 3e
       0.21479842 -0.3872985 -0.38325015 0.3137552
000330 51 a4 dc 3b dc 94 1c 3f 2c 29 91 3e eb 80 c7 3f
       0.006733455 0.6116464 0.28351724 1.5586218
000340 dd cd c5 3d c3 ff 18 bf 49 53 09 3f f3 25 33 3e
       0.09658406 -0.5976526 0.5364271 0.17494945
000350 ab 22 b8 be 5a 2b 04 3f cc d7 b0 3e 0b 32 57 bc
       -0.3596395 0.5162865 0.3453964 -0.01313449
000360 51 2c a8 3f 22 27 f6 3e eb 64 a8 3e 22 e7 9b bd
       1.3138524 0.4807673 0.32889494 -0.076124445
000370 ed ad 3b 3e 57 76 23 3e d0 e0 0c 3e e7 1f 85 be
       0.18328066 0.15963112 0.13757634 -0.26000902
000380 8b b6 71 3e a5 30 fb 3e 50 c2 b5 3d ff 17 ed 3d
       0.23604791 0.4906055 0.08874953 0.115768425
000390 47 43 f5 bd 51 d8 31 bf 7e 6b 75 3e 37 a4 38 bf
       -0.11975723 -0.694707 0.23966786 -0.7212557
0003a0 97 af 9b bd 72 f2 e7 3e f6 ee 5d be 98 06 03 bf
       -0.076018505 0.4530216 -0.21673188 -0.51181936
0003b0 34 e6 45 3c 6e 8f 0c 3f de db 7e bf 8c ae cd 3e
       0.0120788105 0.54906356 -0.9955424 0.4017223
0003c0 9c 7d bc 3e 3d ae 1f 3f 56 b9 4b 3f 08 b8 50 be
       0.36814582 0.6237524 0.79579675 -0.20382702
0003d0 fa 1a 42 3f 43 80 d0 3d 8a 17 ca 3e 70 d1 50 3e
       0.7582241 0.10180714 0.39471084 0.20392394
0003e0 c7 1c 92 3e 8b 1b e1 3e be 60 c5 3e 74 36 dc 3e
       0.2853758 0.43966326 0.3855037 0.43010294
0003f0 fc d5 94 3f c0 92 20 3f 92 31 35 3e e5 19 db 3d
       1.1627803 0.6272392 0.17694691 0.10698298

l1.bias f4 [8]
000000 99 8f a5 3f f5 ff 81 3f 4a 36 ec 3f 90 1f 49 3f
       1.2934448 1.0156237 1.8454068 0.78563786
000010 b9 ae 6f 3f 3a 6f 5a 3f 32 8f 99 3f df 71 53 3f
       0.9362598 0.8532597 1.1996825 0.8259563

l2.weight f4 [8, 8]
000000 7b 77 92 3f 9c 33 8f 3f 35 37 3d 3e 4b ad 0b 40
       1.1442713 1.1187625 0.18478091 2.182452
000010 71 ba e1 3f ac 2e 28 3e b1 2f 4e bf 63 e8 0e 40
       1.7635022 0.16424054 -0.8054152 2.2329338
000020 2a 7a 97 bf 8a b0 0b 40 08 e0 ab 3e 0f 05 11 bf
       -1.1834157 2.18265 0.3356936 -0.56648344
000030 44 7e c2 be 38 a5 27 bf 80 7b b3 3f 2f 8e 35 3f
       -0.37986958 -0.6548648 1.4022064 0.7092008
000040 af 63 0e bf 07 a4 02 bf 73 45 06 40 89 1e d2 3f
       -0.55620855 -0.51031536 2.0979888 1.6415569
000050 08 27 cb bf f4 39 88 3f 6e 06 80 be 7e e6 85 3f
       -1.5871286 1.0642686 -0.25004905 1.0460966
000060 f0 7d 14 40 69 28 57 bf 04 ec 4f 3f fb 50 a0 bf
       2.3201866 -0.84046036 0.81219506 -1.2524713
000070 34 da 3a be a1 78 9d 3f f3 66 33 40 43 68 8a bf
       -0.182473 1.2302438 2.8031585 -1.0813068
000080 d7 3b 53 be 6a 08 5a be 58 63 ba bd 18 66 85 3e
       -0.20628296 -0.21292272 -0.091009796 0.26054454
000090 8f e3 b7 3d 1f 3b 0e be cf b3 03 3e 21 23 f7 bd
       0.0897895 -0.1388974 0.1286156 -0.12067247
0000a0 20 7a bd be 54 56 96 3f 28 45 26 3f fa fd 42 bd
       -0.37007236 1.1745095 0.64949274 -0.047605492
0000b0 b3 3b 6e 3f 39 ec 05 c0 d8 2f e6 3f 98 34 6e 3f
       0.93059844 -2.092543 1.7983351 0.93049
0000c0 58 8f 99 3f a0 33 1d 3f 4c a9 ba 3f 93 35 4e bf
       1.199687 0.614069 1.4582915 -0.805505
0000d0 cf a4 a6 3f bc a8 31 bf 3d 85 9a bf a2 ea 78 bf
       1.3019046 -0.69398093 -1.2071911 -0.9723302
0000e0 c4 e4 cb bd e7 ee 39 be 56 e2 81 be 5c 2b fc 3d
       -0.09955743 -0.1815754 -0.25367993 0.12312958
0000f0 a8 53 67 3d 47 b3 5c be ac 8b a6 3d 30 3b a6 be
       0.056476265 -0.21552764 0.08132109 -0.3246703

l2.bias f4 [8]
000000 2b ad a7 3d 50 68 86 3f 01 61 52 3f c1 2e a1 3f
       0.08187326 1.0500584 0.82179266 1.2592393
000010 95 1b 53 be 26 f6 45 3e f5 90 5a 3f fb a6 45 be
       -0.2061599 0.1933218 0.85377437 -0.19301979

l3.weight f4 [19, 8]
000000 7c d7 5a 3c d9 00 c3 bc ff 6c 8c 3b ee a0 d3 bc
       0.01335704 -0.023804115 0.0042854543 -0.025833573
000010 48 f6 ce 3d fb 12 71 be d4 17 81 3d 90 42 d1 bc
       0.10105568 -0.23542397 0.06303373 -0.025544435
000020 55 ca 9e 3e 57 f4 2c c0 80 5b a4 3e 08 2c 29 bf
       0.31013742 -2.7024133 0.3210106 -0.6608281
000030 f7 7c 85 3e c6 14 57 bc 9f bd 0e 3f 48 17 30 be
       0.26071903 -0.013127511 0.5575809 -0.17196381
000040 32 d3 01 3e 68 d8 91 be 01 74 68 be 92 a4 00 c0
       0.12678221 -0.28485417 -0.22700502 -2.0100446
000050 94 89 a1 be 13 8d b7 3e 8f f4 29 3f 0f d6 a0 be
       -0.31550276 0.3584982 0.6638879 -0.31413314
000060 34 32 95 3e c7 ce ef bd 84 dc 48 3f e2 f7 df bf
       0.29139864 -0.117093615 0.7846148 -1.7497523
000070 04 28 60 bc 3b cf 1e bf 70 1a 86 be f0 28 55 bd
       -0.0136814155 -0.6203496 -0.26192045 -0.052040994
000080 bf 18 ed bf 95 5c 76 be 3b 9b 32 bf 70 bd 6e 3f
       -1.8523177 -0.24058755 -0.6976811 0.9325781
000090 46 75 57 be 4b ff a0 be 9e f1 d2 bf b6 1c 3b 3e
       -0.2104083 -0.31444773 -1.6479986 0.18272671
0000a0 32 a2 7b bf 2f d2 bb bf 15 49 28 3f 63 83 de 3e
       -0.98294365 -1.4673518 0.65736514 0.43459615
0000b0 25 cc 3b 3e a1 6c 00 c0 f1 da 6a 3f 0a 4e 1c 3e
       0.18339594 -2.0066302 0.9174033 0.15264145
0000c0 db 70 c0 be ad dc f7 3e ad b2 fa 3e df 89 5c bf
       -0.37586102 0.4841055 0.48964444 -0.86147875
0000d0 c7 d4 a3 3e 06 10 ad 3e 05 7c 8d bf a5 f2 4f be
       0.31998274 0.33801287 -1.1053473 -0.20307405
0000e0 d2 57 0c c0 e4 d9 6e 3f c0 ab 0e c0 3b 76 59 3e
       -2.1928601 0.93301225 -2.2292328 0.21236508
0000f0 d1 48 46 3e 1e 40 1a 3f 61 57 c7 bf 1d 12 0a be
       0.19363715 0.60254085 -1.5573541 -0.13483472
000100 4e 99 ed be e8 f5 d9 bf 76 f2 a7 bf 0c 1e 0c 3f
       -0.46406025 -1.702817 -1.3120868 0.5473335
000110 28 fc 39 3e c2 55 d0 3d 5f a6 e5 3e 00 97 fb 3c
       0.18162596 0.10172607 0.44853494 0.03071165
000120 b1 ce 76 3d 8e 67 0a c0 2a e2 af bf 90 5d 61 3f
       0.06025571 -2.1625705 -1.3740895 0.8803339
000130 4d 8e f8 3c 17 40 fd bf 53 4f 8f bf 8c 32 81 3d
       0.030341292 -1.9785184 -1.1196083 0.06308469
000140 2a fa 92 bf 6f 97 79 3f 67 05 20 bf 33 7b 58 3d
       -1.1482594 0.97496694 -0.62508243 0.052851867
000150 02 7c d8 bc 15 cb 06 3e e8 a6 21 3d 4f 15 93 3e
       -0.026426319 0.13163407 0.039465815 0.28727195
000160 40 3b 55 be b9 9d 9e bf dc f7 56 3f 54 45 95 3e
       -0.20823383 -1.2391883 0.83971953 0.29154456
000170 e0 dc 92 be 11 db 2c bf 18 c5 ba bf da e7 17 3e
       -0.2868414 -0.6752177 -1.4591398 0.14834538
000180 e8 23 3f 3f fb 59 1d 3e 61 6e 17 be a3 b7 11 c0
       0.74664164 0.15366356 -0.147882 -2.2768333
000190 46 37 62 bd 0d 13 ae 3d 8e 80 0b c0 a0 73 95 3c
       -0.055228494 0.084997274 -2.1797214 0.01824361
0001a0 65 2b b2 bd a4 f7 2f bf 53 af e9 bf 3b 34 b4 be
       -0.08699683 -0.68737245 -1.825663 -0.351961
0001b0 a0 87 7f 3e 43 4b 9c 3e ca f2 66 3f c9 6d 9f 3e
       0.2495408 0.3052617 0.90214217 0.31138447
0001c0 5c af 00 3f 5f 6a fb bf 7a 11 82 3f 12 98 5a bf
       0.5026758 -1.9641837 1.0161583 -0.8538829
0001d0 cc e2 99 be 39 65 04 c0 fe 87 ed bf 50 03 b4 bc
       -0.30055845 -2.0686781 -1.8557127 -0.021974236
0001e0 93 77 2d c0 f6 6e a3 3e c3 45 52 3f df 1e 25 3e
       -2.7104232 0.31920594 0.821377 0.16125058
0001f0 43 3c 9c be a1 96 00 3e 36 d2 d5 bf 16 a3 42 be
       -0.30514726 0.1255746 -1.6704776 -0.19007525
000200 cb f4 30 3f 55 ed 49 bf 72 76 b0 bf 19 e9 bf be
       0.69123524 -0.78877765 -1.3786147 -0.37482527
000210 73 6e 6d 3e 5e 2a d4 3e ae 86 26 bf 98 57 52 be
       0.23186664 0.41438574 -0.65049255 -0.20541227
000220 3a 22 14 3f fc 82 fc bf 70 71 db bf eb ac d2 bc
       0.57864726 -1.9727473 -1.7143993 -0.02571722
000230 d6 f8 cf bd f2 52 b4 bf 88 9f 31 3f 3e 4b 7b 3e
       -0.101548836 -1.4087813 0.6938405 0.24540421
000240 25 2b 53 3e 63 bd 27 3f f4 28 ab bf 34 5a 23 bf
       0.20621927 0.65523356 -1.3371873 -0.63809514
000250 a5 c9 94 be 4e 38 03 3f b8 2f 13 c0 12 9f 22 3e
       -0.29060093 0.5125779 -2.2997875 0.15880993

l3.bias f4 [19]
000000 7d ab 23 bd 23 84 84 be 0a a7 8b be 51 e3 ae bb
       -0.039958466 -0.25882062 -0.27275878 -0.005337157
000010 13 1d cb 3d a7 51 72 bd ca 5d 0c bf 60 00 07 be
       0.09917655 -0.0591599 -0.5483061 -0.13183737
000020 14 09 92 be fc b4 2f 3f d3 1f a6 bd fd 26 ad bd
       -0.2852255 0.68635535 -0.08111539 -0.08454702
000030 3f 85 b7 3e 30 9d 9a bd 81 48 0a 3e 48 77 84 3d
       0.35843846 -0.075495124 0.1350422 0.064680636
000040 9b cb f7 be a3 02 83 bd 6e b0 1f be
       -0.48397526 -0.06396987 -0.15594646
